Neural POS Tagging/lstm_model.pt (torch, 983525 bytes, 7 tensors)

embd_layer.weight f4 [867, 128]
00000000: a731 23bf 0602 263f 2ffc c13e ed4f 83bd
00000010: 6528 b5bf ae2d 633e dc20 a63e aec8 d13f
00000020: 1c7d 0f3f 40c1 3740 0d35 a8bf 55f1 0cbf
00000030: 0db1 4540 a82f 47bf ad0b cb3d d335 c6be
00000040: 099b 37bf bf5a 9d3f cc6d a5be 0769 0140
00000050: 9a0d 2f40 cb14 523f 78ef da3d cdda b23e
00000060: 5963 1240 83de a83f bb6f a9bd 9f1c 893f
00000070: 6ac7 293f 05fa b63f 1907 b53e 8fcc 923a
00000080: 1bbd 0bc0 427c adbe dd57 4fbf 1697 583f
00000090: 7247 0e3e 133a 9f3e 8b98 183d 6041 11bf
000000a0: 9c02 b9bf 462f 21be 4271 9dbe bc0b f93f
000000b0: 0693 473f f378 a33f eaf7 edbe 60e3 4dbf
000000c0: fe36 01bf 1ade 1d3d eae8 053e 2bf0 94bf
000000d0: 423f 22bf 9799 8cbf 30c2 e4bd eec7 1fbf
000000e0: 093d d73f 3249 a63e bf59 b23e 4316 48bf
000000f0: fbf5 9b3e 728a 893f 4398 e83e 19e0 ae3f
00000100: 703d 38bf b0a4 5ebf 6827 91bf 4e36 95be
00000110: 4cfb 713d dd95 b93e f102 62bd c06f 4abf
00000120: 2e29 7dbf a745 793f d523 283d f37c fdbf
00000130: e317 babf c2ce a33f 4f95 53bf b7be ad3e
00000140: d2c6 d3be 9897 363f 928a fabf 8a5a 8fbf
00000150: f11f a0be 26de 3fc0 9bba 983f a588 733f
00000160: cc9a 0c3c 4e8c 3140 f132 083f 1a25 c33f
00000170: f27c e23e 7619 a73f 81a5 593e 120b acbf
00000180: 61c6 903c 6150 763f 3b8c 6bbe d306 2e3c
00000190: 75cd b7bd 7df0 003f 3f09 3ebf c07a 6d3f
000001a0: 3056 ce3e 9371 c73d 34b8 77bd a248 1640
000001b0: 9bd7 adbf 3324 e03e 22e4 c33e 5d65 953e
000001c0: 243f a0bf 3ac0 b8be 45c4 8e3f 0a88 9f3f
000001d0: 0d2b 2cbe 1b8b 3c3f cdd2 793f 3b02 00bf
000001e0: 345f c1bd 0ea3 b7bf 1cbc 09bf ea18 0d3f
000001f0: b5ef 70bf 82d0 e8be edb4 85bf 4982 abbe
00000200: e5a8 38be 5b5f a63f 4f17 24bf ffc3 833f
00000210: 970a e2be ab3c d13f 9612 2b3f dc07 a53f
00000220: 6404 0440 06a7 043e 7d28 83bf fe1a 4c3e
00000230: ee60 663f ebf8 48bd 8c5d 5cbf 2cda a03f
00000240: c021 a63f ab77 353f b906 a43f 84e9 313f
00000250: b0d0 373e ee2e e83f 01de 3fbf 3f70 d1bf
00000260: 6f21 e23f d770 e6bd 9a69 fc3e 50d6 3b3f
00000270: dc5a 2ac0 9bae 543f d822 4f3f b3d4 663e
00000280: 628e 74bf 006d 913e 4abc 8a3f 7aad 833f
00000290: 9a9f 12be f1ab db3f 530d 74bd d113 dabd
000002a0: f683 4dbd 93cb 2abe ff13 cc3f 106f 443e
000002b0: ac87 9cbf 7b9c 613f c546 5d3f 91b7 ebbf
000002c0: c8f6 3dbf dc10 a9bf 39f4 c63f 51fd 8bbf
000002d0: 4cf2 643f 8701 473b fda5 633f 6d06 f8be
000002e0: 5298 ecbf 2be2 563f 4398 b13f d77e b63f
000002f0: 48b4 fabf d3cd 7a3e e673 0940 18b0 b2be
00000300: b6bc 713e aec4 03bf ac33 8540 1104 803f
00000310: 1ca8 12bf 1e1e 5e3f 1b43 ab3f 8410 f33e
00000320: 0693 14c0 b043 1dbf 1b48 c23f 6068 08be
00000330: 3d72 1cc0 c5b3 003f 92bd e2bf ffcc 25bf
00000340: 7416 313f 081e 0040 1c6a ed3e 10e5 943f
00000350: 85c4 963d ea51 b83f 0af0 bfbe b852 75bd
00000360: 79be e73f de68 0b40 cb6f ba3f 9f2f 0fbd
00000370: 8346 3abf 4e82 603f 34b8 233f 0a25 80bf
00000380: 83dd cebf 881a 793e c589 a3bf 2738 95bf
00000390: 75c4 de3e 2c0c b3bf c08e 2e3f 2afb 873f
000003a0: 0497 8d3f e1d8 8b3f fa1e 273f fe65 833f
000003b0: 4f64 ff3f 47bb 6fbf 2870 eabe e08e a23f
000003c0: 1df7 043e e0e8 3fbf a6e4 b43e a361 40bf
000003d0: e90d 9240 a8fd a2bf 3693 a43f cb67 6abf
000003e0: 944b 02bf aaf9 80bf ac2e 3b3e a766 32be
000003f0: 232a 11bf a3c5 05c0 1402 bfbf efbb 623f
-0.6374764 0.6484684 0.37887713 -0.06411729 -1.4152952 0.22185394 0.32446945 1.6389368
0.56050277 2.87117 -1.314119 -0.55055743 3.0889313 -0.7780709 0.09914336 -0.3871294
-0.7172094 1.2293319 -0.3231033 2.0220354 2.7352052 0.8206298 0.10690206 0.34932557
2.2873137 1.3192905 -0.08273264 1.071186 0.66319907 1.429505 0.35356978 0.0011199879
-2.183417 -0.33883864 -0.80993444 0.8460554 0.13894442 0.31098995 0.03725485 -0.5674038
-1.4453921 -0.1574069 -0.3075047 1.9456706 0.77958715 1.2771286 -0.46478206 -0.8042507
-0.50474536 0.03854189 0.13077131 -1.1635793 -0.63377774 -1.0984372 -0.11169851 -0.62414443
1.6815501 0.3247772 0.34834096 -0.7815897 0.30461106 1.0745375 0.45428666 1.3662139
-0.71968746 -0.86970043 -1.1340151 -0.29142994 0.059077546 0.3624715 -0.055178586 -0.79076767
-0.9889096 0.97371906 0.041049797 -1.9803756 -1.453854 1.2797472 -0.826497 0.33934566
-0.41362625 0.71325064 -1.9573538 -1.1199505 -0.3127437 -2.9979339 1.1931947 0.9513038
0.008581828 2.7741885 0.5320273 1.5245697 0.4423595 1.3054645 0.21254541 -1.3440878
0.01767272 0.962164 -0.23002712 0.010621744 -0.08974735 0.50366956 -0.7423286 0.92765427
0.4030013 0.097384594 -0.060478404 2.3481832 -1.3581423 0.43777618 0.3825999 0.29178897
-1.2519269 -0.36084157 1.1153647 1.2463391 -0.16813298 0.7364976 0.9758728 -0.50003403
-0.09441987 -1.4346635 -0.5380266 0.5511614 -0.94115764 -0.4547158 -1.0445839 -0.33497837
-0.18033178 1.299785 -0.64098066 1.0294188 -0.44148704 1.6346639 0.66825235 1.2893023
2.062768 0.1295434 -1.0246731 0.19932172 0.8999165 -0.04906551 -0.8608024 1.2566581
1.297905 0.70885724 1.2814552 0.6949694 0.17950702 1.8139322 -0.74948126 -1.636238
1.7666453 -0.11251991 0.49299318 0.7337389 -2.6617956 0.83078927 0.8091254 0.22542076
-0.9552976 0.28403473 1.0838711 1.0287316 -0.14318696 1.7161847 -0.05958302 -0.10648311
-0.050174676 -0.1667922 1.5943602 0.19182992 -1.2228904 0.88129395 0.8643611 -1.8415395
-0.74204683 -1.320827 1.5543281 -1.0936681 0.89432216 0.00303659 0.88925153 -0.48442402
-1.8483984 0.83938855 1.3874592 1.4257458 -1.9586267 0.24492578 2.1476989 -0.34899974
0.23607144 -0.51471984 4.1625576 1.0001241 -0.57287765 0.86764705 1.3379854 0.47473538
-2.3214736 -0.6143141 1.5178255 -0.13321066 -2.4444726 0.50274307 -1.7714102 -0.64765924
0.69174886 2.001833 0.46370018 1.1632404 0.07361702 1.4399998 -0.37487823 -0.05989334
1.8105003 2.1782756 1.4565367 -0.034957524 -0.7276384 0.8769883 0.63952947 -1.0011303
-1.616135 0.24326527 -1.2776419 -1.1657761 0.4350926 -1.398809 0.6818657 1.0623524
1.1061711 1.0925561 0.6528164 1.02655 1.9952487 -0.9364514 -0.45788693 1.2699852
0.12984891 -0.74964714 0.35330695 -0.7514898 4.564198 -1.273366 1.2857425 -0.91564626
-0.50896573 -1.0076191 0.18279523 -0.17421971 -0.5670492 -2.0901878 -1.4922509 0.88568014

lstm_layer.weight_ih_l0 f4 [512, 128]
00000000: 3d98 e73e 03f5 09bf f830 dfbe 9312 1dbf
00000010: b694 f93e 9331 aebf a23a 51bf a3ee 3ebf
00000020: 56a0 5bbf 547f 10bf 8b9e d5be ee0f 453f
00000030: 1c5b 6abf 0064 2dbf e49d 153f 8b95 05bf
00000040: 1c7e 2c3f 1934 303e c226 fabe 4f31 bebe
00000050: 3eb4 0bbe 8dd8 8abe 510b d03e 3584 2b3f
00000060: 5882 f0be 159a 6abd c9f0 43be 4b80 a0be
00000070: 04e8 a33e d525 57bf df2a 29bf d776 67bf
00000080: 5299 4e3f f869 063f b173 02bf 0e7f 2bbf
00000090: a32d 2cbe 634f fabe b74e 213f e68e 193f
000000a0: 25e1 b63e 38ba 48bf 5680 18bf 0c92 55bf
000000b0: afcb 403f fe0d 36bf de4b 3e3f 7c94 873e
000000c0: 2d63 3dbf 6218 0d3f 36df 23bf cf9d 303f
000000d0: 83a4 1f3f 0b3d 443f 8e24 c63e f419 193f
000000e0: 3c99 173f 807c 02bf 874b 59bf f85a c1bd
000000f0: 9b20 1b3f cdd8 74be 39da e5be b7e3 20bf
00000100: 3932 5bbf 411b 2cbf 7baa 6dbf 7ddc 11bf
00000110: 132c f13e 0b4d c7be eb2c 4bbf 128d de3d
00000120: dd3b 183f 8e28 d3be fee0 8ebf c913 7a3f
00000130: 7b3c 36be e089 47bf 6387 113f 5220 1e3f
00000140: 1bbd 2e3f 372f 61bf b802 80be 9890 c3be
00000150: 9e2b 1abf 1c34 113f 8396 c03d 6365 4c3f
00000160: f3f5 8dbf 696d c3be e9d0 2f3f fc16 1fbf
00000170: 3eb6 5cbf c119 3fbf e3f5 a13e 277b a73e
00000180: fc68 3abf 6012 d53e bad6 5d3f e5a7 91bf
00000190: b0ff eabe 3a7a 1c3f 5ecb 0c3f 33dc 76bf
000001a0: 2a30 86be fc1a ca3e 0e5c e03e 281a 0bbf
000001b0: e810 133e 02ac 2c3f a2f4 223f 7f68 423f
000001c0: 65c9 20bf 17a2 10bf fd29 273f f7b9 2d3f
000001d0: d17e 52bf 615b 7dbf de44 00be c20e 973e
000001e0: 3b54 3abf f6fa f53e 1999 803e 78c6 72bf
000001f0: f44f c43e b7f6 35bf 374c 213f aca3 37bf
00000200: 3f7c b1bd b99e 313e 2513 47bf fb1d c9be
00000210: 30b8 bbbf 8280 e7bf dd13 d03e b99e 883e
00000220: 7b79 a9bf 3817 433f 5b7e e23e 5010 333e
00000230: e73d 143f cd6c 4fbf fa27 bbbc a4f1 843f
00000240: bbf3 aa3f 2652 623e 4860 cabe 7c56 6dbf
00000250: 238e fa3e 7bb0 5b3f ada1 38be 0604 9f3e
00000260: 06c0 d03e 04b3 dc3f 9aee 97c0 2862 583e
00000270: f82e 85bf 1daf 2fbf 9be6 20bf 8e79 6dc0
00000280: e42a e1bd fc98 0e3f 9965 94be 4957 883f
00000290: a0e4 1a40 e6bb 963f ad2a 19bf 5274 ccbe
000002a0: 6deb 83be 250b d5bf d372 0d40 74e1 2bbf
000002b0: 33fa cdbd 34a2 e9be 0491 513e 521c d73f
000002c0: 1f9f 303f 5ba3 23c0 ef1b bd3d 8ca1 733e
000002d0: 4ae9 9bbf aadb bebe 4c37 0b3f 5f23 ee3f
000002e0: 1b40 82bf f211 f13e 9d50 99bf bdd2 c3bf
000002f0: 4d7d 713e 6a4f c3be 3215 183f edd7 8a3f
00000300: 657d 6dbf 3bd8 8cbf ebb9 e7bf 6902 643f
00000310: dd52 a1bf 2142 343e de6b 90be 80ae f63e
00000320: 7ae5 a0bf a605 7d3f ceae c7bf 3711 32be
00000330: e647 e33d fc95 c4be 752b 60bf 9666 cb3e
00000340: d17d 813e 7e2a fbbf d89f 81b9 0d0a 14bf
00000350: c5da 8c3d de32 af3e 8040 ff3f 8011 0e3d
00000360: dfb3 d5bf 24f0 27be f4d6 0dbf 7043 a33e
00000370: 8c3a 383f ba57 e7be 95f9 2e3f 1400 2dc0
00000380: 01f5 2dbe bcbd 6b3e 3c6c 2f40 3f2b 893e
00000390: 0a87 3040 6fa8 63bd 505e 62bf 2aa2 513d
000003a0: bcca 31c0 18a9 91be 2576 7d3f f0fa 3a3e
000003b0: a3dd 63bf 9018 56bf ed2a 603d 39e7 e7be
000003c0: 2a8f 1dbf 73be d2be 00f3 4fbf 76c3 02bf
000003d0: 28d2 05bf 8071 1abf c252 c33e a4cb 69be
000003e0: 8196 1a3f 9f04 d93c b460 513f adc5 52bf
000003f0: 342c e93f 869b 31bf cccf 8b3f 6689 a13f
0.45233336 -0.53889483 -0.43592048 -0.61356467 0.4874627 -1.3608879 -0.8173009 -0.7458288
-0.8579153 -0.5644429 -0.4172252 0.7697743 -0.9154527 -0.6773071 0.58444047 -0.5218131
0.6737993 0.17207374 -0.48857695 -0.37146994 -0.13642976 -0.2711834 0.40633634 0.66998607
-0.46974444 -0.05727585 -0.19134821 -0.3134788 0.3201295 -0.840421 -0.6608104 -0.9041571
0.807027 0.52505445 -0.5095778 -0.66990745 -0.16814284 -0.48888692 0.63010734 0.5998367
0.35718647 -0.7840915 -0.59570825 -0.83425975 0.75310796 -0.711151 0.74334514 0.26480472
-0.73979455 0.5511533 -0.6401247 0.68990797 0.623604 0.76655644 0.38699764 0.59805226
0.5921819 -0.5097122 -0.8488087 -0.09441179 0.60596627 -0.23910828 -0.44893053 -0.62847465
-0.8562351 -0.67229086 -0.9283826 -0.56977063 0.47103938 -0.38925967 -0.79365414 0.10866751
0.59466344 -0.41241878 -1.1162412 0.9768644 -0.17796509 -0.77944756 0.5684721 0.61768067
0.682573 -0.8796267 -0.25002074 -0.38196254 -0.60222805 0.5672014 0.09403708 0.79842204
-1.1090683 -0.3816941 0.68678147 -0.62144446 -0.8621558 -0.7464867 0.3163291 0.32711145
-0.72816443 0.41615582 0.8665577 -1.1379362 -0.458982 0.61124 0.54997814 -0.9642975
-0.2620862 0.39473712 0.43820232 -0.54336786 0.14361918 0.67449963 0.6365453 0.759407
-0.62807304 -0.5649733 0.65298444 0.67861885 -0.82224756 -0.9896756 -0.12526271 0.29503447
-0.72784775 0.4804303 0.25116804 -0.9483409 0.3834225 -0.7107958 0.6300692 -0.7173412
-0.08666276 0.17345704 -0.7776359 -0.39280686 -1.4665585 -1.8086092 0.40640154 0.26683596
-1.3240198 0.76207304 0.44237027 0.17486691 0.57906955 -0.8102539 -0.02284621 1.0386243
1.3355631 0.2210165 -0.39526582 -0.9271009 0.48936567 0.8581616 -0.18030424 0.31057757
0.40771502 1.7242131 -4.747876 0.21131194 -1.0404959 -0.68626577 -0.62851876 -3.710544
-0.10994509 0.55702186 -0.28983763 1.0651637 2.4202042 1.1776092 -0.59830743 -0.39932495
-0.25765553 -1.6644026 2.2101333 -0.6714089 -0.10057487 -0.45631564 0.20465475 1.6805518
0.689928 -2.5568454 0.092338435 0.23792094 -1.2180569 -0.37276965 0.5438125 1.8604544
-1.0175813 0.47084004 -1.1977726 -1.5298687 0.23582955 -0.38146526 0.5940734 1.0847145
-0.9276946 -1.1003488 -1.8103613 0.8906618 -1.2603413 0.17603351 -0.28207296 0.48180008
-1.2570031 0.98836744 -1.5600221 -0.1738938 0.11097698 -0.3839568 -0.8756631 0.39726704
0.25291303 -1.9622343 -0.0002472389 -0.57827836 0.068776645 0.34218496 1.9941559 0.034684658
-1.6695517 -0.164002 -0.5540612 0.31887388 0.71964335 -0.45184118 0.6834958 -2.7031298
-0.16987993 0.23021597 2.740981 0.26790807 2.7582421 -0.055580553 -0.8842516 0.051180042
-2.777999 -0.2844932 0.990084 0.18259788 -0.89010066 -0.8363123 0.054728437 -0.45293596
-0.61546576 -0.41160926 -0.81230164 -0.510795 -0.522738 -0.6032944 0.38149077 -0.22831589
0.603859 0.026491461 0.8178818 -0.8233288 1.8216615 -0.69377935 1.092279 1.2620056

lstm_layer.weight_hh_l0 f4 [512, 128]
00000000: 2d23 0cbf 4311 dfbe aa59 07bf f6c5 ca3d
00000010: 9c02 463f f1ee a83e 50ed 713c e17c 8a3e
00000020: c13e f4be b488 503f a37e 273e 2872 e83e
00000030: b35d 073f 72d1 413f b837 b7be d373 1f3f
00000040: cb85 15bf 139b 45bf d23c dbbe 3ec2 30bf
00000050: 6440 0abf 622d 273f cb09 083f fd40 133f
00000060: d862 2fbf 168d 0fbc d5fe f7be 9640 63be
00000070: 5112 f6be 1849 363f 7abc 403f 005f ef3c
00000080: 08b4 b0be 969a 08bf ebd4 2abf 4635 093f
00000090: cdd5 3bbf f2d3 82be b6db 9b3e 65a0 52be
000000a0: e0da 073f 3231 913e 2c79 9dbe 162d e23e
000000b0: 5ade 75be daf5 0d3f f726 0a3f 2d95 e4be
000000c0: 1722 213f 405b 85be ffbb c2be 1e17 abbc
000000d0: b29d 22bf 7856 0fbf f86b 1ebf beb2 4e3f
000000e0: be72 ecbe f56b e7be b982 91be 7555 953e
000000f0: 0ecb a3be 278e cfbe 401f a2bc fe9b 163e
00000100: 2e2d 80be aed8 023f 6c97 74be bf75 25bf
00000110: 9c8f 6e3e 465e 293f b39e 123f 627a 1abe
00000120: 8238 0b3f f2e1 cb3e dc0f 56be bf2a 053f
00000130: ff27 053f fea7 b4be aa51 2bbe 049a 24bf
00000140: 21ab 0bbf e8db 253f fee5 84be 5172 aabe
00000150: ecd9 2d3f b540 043f 1ef7 d6be 7e91 0a3f
00000160: 86a5 d6be b04c 5d3e b3ee 3ebf 4b22 b73e
00000170: 0d71 933e 962f 183f 7cf5 44bf 0f14 1abf
00000180: 0534 13bf 4ad5 c1be d9e1 993e c4e5 283f
00000190: 699f 7b3d bae5 ecbe 9dd7 7cbc 7b3d 35bf
000001a0: 3baf b5be 4f45 f4be dcf3 073f 50e6 eabe
000001b0: 6bab bb3e 8ab5 0bbf e8b0 de3e 2462 bbbe
000001c0: af71 febe 1478 f23e 66bd eabe 6692 ecbe
000001d0: 1d51 01bf 419d 2c3f 6e7b 0abf 5687 043f
000001e0: f310 0abf 657f 113f 2c07 ea3e 135f f93e
000001f0: 111b 483e 9ea0 1c3f c0ad 423f 59f6 eb3e
00000200: 6053 e23e 2a64 8c3f 689c 75bf 7fc4 41bf
00000210: b0a1 77bf f6d8 cc3f 9c73 f9be d810 89be
00000220: 8adf a0bf 428f ca3e ea00 3b3f 38d0 a9be
00000230: 6ddd e9be 9ba0 e83e 465a df3e e85f 43bf
00000240: c87d 2d3f bfb5 1abe 031f 843f d28c 153e
00000250: 5c74 29bd dc3b 5fbf 4c13 8bbf d118 71bf
00000260: ae5a 573f 3551 e33e ba32 683f a6a0 633e
00000270: 655c 443f 0c0a 853e 48ee 123f 2bc6 c6be
00000280: d46b debe 0e2e 03bf 472f 9dbf 0db0 9e3d
00000290: e2ac 313f 6e9b 63be cf3b 46bc 05d5 2c3f
000002a0: 4c60 19be d18f 023f 2e8b dbbe f87b 613d
000002b0: 7c9e 35bf 5362 e6be 9592 7f3e f6e1 923e
000002c0: 91f1 2abf b967 3ebe 09ca bb3e 5812 1b3f
000002d0: 4f30 283d 7e97 673e 9a0c c4bc 2877 88bf
000002e0: a464 9b3f f05e 1b3f 51b1 a73e 7ba3 7d40
000002f0: 7ea0 943e 5cb2 a53e cee7 a9bf a72b 5b3f
00000300: c185 913e 0ffe 67be 6468 d3be 85a5 d3be
00000310: 55e0 fdbd b215 30be d584 4cbe 1e78 85bf
00000320: d5c3 3ebf 6229 06bf fdf2 1c3d f9e5 ca3e
00000330: cdea 29bf 882e 483f 86eb 3c3f f45b e5be
00000340: 8703 f0bd 04a5 72bb dc1a 3940 0e72 843e
00000350: 509f 503d 2195 bdbe 7db3 c03e 66fd 23bc
00000360: ac28 f63e 5e48 063f 7549 78be b059 ce3d
00000370: 6c62 00bf 8498 93bf c0f7 3c3f e3f0 2f3f
00000380: c2fd 9b3f fce5 123e ef5d 09be 6697 70bc
00000390: 444f 8d3f ad1d 9cbe d12c a43e a11b 79bf
000003a0: 53b6 1a3f b211 b93e c017 4abf 5865 aebe
000003b0: f08e 11bf 3cda d43f ba6c 3d3e af1d 533f
000003c0: 845e 923e aff6 2ebe 553a a03f 9136 a1bd
000003d0: 1518 56bf bf52 14c0 1cee 383f 64f8 063e
000003e0: 2034 813f 4559 42bf fc4e 92bf fc98 22bf
000003f0: cdcc cbbd d15f 9c3e 78e4 4c3f 416c cb3f
-0.54741174 -0.43567857 -0.5287119 0.09901039 0.7734773 0.32994798 0.014766052 0.270484
-0.47704127 0.8145859 0.16356902 0.45399594 0.5287735 0.75710213 -0.35784698 0.6228611
-0.58407277 -0.7718975 -0.4281984 -0.6904639 -0.540045 0.65303624 0.5313994 0.5752104
-0.685102 -0.008761665 -0.4843661 -0.22192606 -0.4806085 0.7120528 0.7528759 0.029220104
-0.34512353 -0.5336088 -0.6673114 0.53596914 -0.7337311 -0.25552326 0.30441064 -0.20568998
0.5306835 0.28357846 -0.3075651 0.44175023 -0.24010602 0.55453265 0.53965706 -0.44645062
0.6294264 -0.2604618 -0.38034055 -0.020885047 -0.63521874 -0.55991316 -0.618835 0.8074149
-0.4618129 -0.45199552 -0.28420046 0.2916676 -0.31990856 -0.4053814 -0.019790292 0.14707944
-0.2503447 0.51111877 -0.23885888 -0.6463279 0.2329697 0.66159475 0.57273406 -0.15085748
0.543831 0.3982082 -0.20904487 0.5201835 0.52014154 -0.35284418 -0.16730371 -0.6429751
-0.54557997 0.64788675 -0.2595672 -0.33290341 0.6791065 0.51661235 -0.4198541 0.54128253
-0.4192316 0.21611285 -0.74582976 0.3576835 0.28797188 0.5944761 -0.7693708 -0.60186857
-0.5750125 -0.3785804 0.3005512 0.65975595 0.061431322 -0.46269017 -0.015432266 -0.70796937
-0.35485253 -0.47709128 0.53106475 -0.4587884 0.3665422 -0.5457388 0.43494344 -0.36598313
-0.4969611 0.47357237 -0.45847625 -0.46205443 -0.50514394 0.6742745 -0.5409459 0.51769006
-0.5393211 0.56835014 0.45708597 0.48705348 0.19541575 0.6118258 0.7604637 0.46086386
0.44204235 1.0968068 -0.9594178 -0.75690454 -0.9673109 1.6003711 -0.48721015 -0.26770663
-1.2568219 0.39562422 0.7304827 -0.3316667 -0.45676747 0.45435032 0.4362356 -0.76318216
0.6777005 -0.15108393 1.0321964 0.146045 -0.041370735 -0.87200713 -1.0865264 -0.9417849
0.8412274 0.44397894 0.907024 0.22229251 0.7670348 0.25984228 0.5739484 -0.38823065
-0.4344164 -0.5124215 -1.2280053 0.07748423 0.69404423 -0.2222726 -0.01209922 0.6751254
-0.1497814 0.51000696 -0.42879623 0.055049866 -0.7094495 -0.4499689 0.2495826 0.2868802
-0.6677485 -0.18594255 0.36677578 0.60574865 0.041061696 0.22616383 -0.02393179 -1.0661364
1.2140088 0.6069174 0.3275247 3.963103 0.29028696 0.3236264 -1.3273866 0.85613483
0.2842236 -0.2265551 -0.4129058 -0.4133722 -0.123963036 -0.17195776 -0.19972546 -1.0427282
-0.74517566 -0.52406895 0.03831767 0.3962858 -0.663739 0.78196 0.7379688 -0.44796717
-0.11719423 -0.0037024627 2.8922644 0.25868267 0.050933182 -0.3702784 0.3763694 -0.010009145
0.48077905 0.52454174 -0.24246772 0.100757 -0.5015018 -1.1530919 0.73815536 0.6872694
1.2186816 0.14345545 -0.13414739 -0.014684534 1.1039815 -0.3049139 0.32065442 -0.97307783
0.60434455 0.36146313 -0.7894249 -0.34061694 -0.5685873 1.66291 0.18498507 0.8246717
0.28587735 -0.1708629 1.2517802 -0.07871736 -0.83630496 -2.3175504 0.72238326 0.13180691
1.0094032 -0.75917464 -1.1430354 -0.63514686 -0.09951172 0.30541852 0.80036116 1.5892411

lstm_layer.bias_ih_l0 f4 [512]
00000000: d246 963e 8476 15bf 957c f1be 8cc9 413f
00000010: 7d1d 7bbf c015 c5be b98d 37bf aec3 b7be
00000020: e1fc 59bf 9a1e 53bf 3fa3 bbbd 479d 2a3f
00000030: 0770 52bf 68e6 4ebf 9bcf 323f a141 babf
00000040: e482 41bf a657 283f 8dba f43e 8e1e 11bf
00000050: ee25 85bf b1e7 e5be d736 1ebf 54f4 9bbf
00000060: 8929 81bf 5be7 193f 0926 78bf 2b92 4f3f
00000070: 6889 08be b2f2 40be fd6e 3ebf 3459 373d
00000080: 8421 473f 95d5 7cbc aa9a 0cbf f1b7 81be
00000090: de00 a8bf 959a 93bf 21a7 4a3f 09bd 58bf
000000a0: 29e8 d6bb 0234 2abf 96f5 f73e 1a0c e33e
000000b0: 42f5 0a3f 2858 39bf 3944 05bf 0402 3a3f
000000c0: f8d4 7abf c9c4 42bf 3fc1 183f 74d4 bebe
000000d0: 0a4f bb3e c84c 49bf 20e7 0c3f 0fe9 9abf
000000e0: ae21 52bf 22b4 81bf fede d8bf b116 f53b
000000f0: ac8e b33e ca21 2f3f cc56 453f 6765 cc3e
00000100: b552 45bf 710d 8cbf a82c 473e 7ec0 07bf
00000110: cf80 84bf f78c 113f 2b81 fb3e 730c 363f
00000120: 19f7 7bbf 5fe5 2bbf 21bc 0c3f af41 003d
00000130: f979 19bf 81b6 643f eba7 213f b723 33bf
00000140: 0cdd f73d 22c5 8a3e fcaa 763e 87b9 043f
00000150: 36ad 25bd 4ec6 123f 95a0 5c3f 0415 0a3f
00000160: df36 263f a205 f43e 5b96 993e f4a8 2f3f
00000170: 0f0c 66bf f617 66bf b3c9 72bf 159d 3ebf
00000180: 5ffc 0abf 343d 1f3f 0c0e cc3d 100c 043f
00000190: 9c14 2d3f 7615 5dbf 80e8 3a3f db57 21bf
000001a0: eaa6 2cbe 375f 433f ae5f 4dbf b6f7 52bf
000001b0: e2e4 203f c9b0 03bf 0430 623e 4763 58bf
000001c0: a4a5 303f 1367 053e b24c 23bf df92 3f3f
000001d0: 5fbc 593d 85f6 11bf 475e 65bf e756 013f
000001e0: 9412 53bf 5268 b7bf 1f1c 3fbf 01cd 46bf
000001f0: 7fa9 6e3f 0417 3f3e 1765 44bf a0b3 8ebe
00000200: 3568 1e3f 54e4 86bf 266b 82bf c824 193f
00000210: 29fe aebf d09a f7be 695e 70bf 4096 0abf
00000220: da45 5fbf e09d 23bf b591 8b3f 3097 493f
00000230: c9f2 56bf cc92 13bf a555 633f 8ccd 18bf
00000240: 6adc 42bf 7b39 9c3f 1455 45bf 75c3 23bf
00000250: 25d9 4dbf 359f 4cbd 2b5c 1dbf 7004 46bf
00000260: 49dd 2fbf 1e69 323f 677a 67bf 2b22 6d3f
00000270: 00bb 1dbf 4554 a73f 8b2e 2cbf 98e3 25bf
00000280: 9702 b73e ba87 ef3d 57c8 0ebf e336 033f
00000290: e5ae 4bbf 8ffb 69bf a053 a13e 80df 56bf
000002a0: 5c7f 4b3f 833b 14bf 130a 5f3f b022 813f
000002b0: cb4f 8bbf 6693 4dbf 9d31 843f 6647 613f
000002c0: 1251 21bf 441f 60bf 0a4a 703f e46b 62bd
000002d0: 742d 843e 4a5f 123f 8421 193f 8171 d2be
000002e0: 4fe6 03bf 9074 cdbe a4f4 35bf 84fe 81bf
000002f0: a41b 673f 6de6 6c3f aa2f 2e3f 8cf5 9c3d
00000300: 0eb0 4cbf 3944 93bf 3d10 903f 9cf9 bb3e
00000310: 9cb7 12bf 7a66 4e3f 8a37 0e3f f94a c93c
00000320: 5b3e 42bf 0036 e7be d484 003f 42a9 de3f
00000330: 6f83 fdbe 92a4 f13e d531 b13e 9db1 6abf
00000340: 1106 593f 47c3 493f 0172 85bd c0e2 4a3f
00000350: 7fde 2d3f a3a4 b53f 4b33 353f ddf0 4f3f
00000360: 2711 6e3f 381c 2e3f 2fd2 883f 65ce 763f
00000370: 92b5 44bf c0ff 33bf 0d9c 4ebf fd57 46bf
00000380: 8103 62be 8d39 563f 140e 813e a85b 503f
00000390: 55df 4f3f 7885 42bf 81a5 693f 5aa7 11bf
000003a0: ffbc 063f 6689 443f 632e 53bf ba98 5cbf
000003b0: 5959 203f e572 b9be 3139 693f 9820 1cbf
000003c0: 47db 383f a7c9 22be d0e6 42bf 138a eb3e
000003d0: 1493 0b3d c9e7 37bf 0dfe 1ebf 2587 353f
000003e0: e134 13bf 40bc 88bf 58ca 36bf b6a7 56bf
000003f0: 6f07 033f 0ea7 a43f d045 25bf 1625 38bf
0.29350907 -0.58383965 -0.4716536 0.7569816 -0.9809187 -0.38493156 -0.71700627 -0.3589148
-0.8515149 -0.8246857 -0.09161996 0.66646236 -0.8220219 -0.8082032 0.6984803 -1.4551278
-0.7559035 0.6575874 0.47798577 -0.5668725 -1.04022 -0.4490333 -0.6180243 -1.2183938
-1.00908 0.60118645 -0.9693304 0.8108241 -0.13333666 -0.18842581 -0.74388105 0.044762805
0.77785516 -0.015431781 -0.549235 -0.2533565 -1.3125265 -1.153155 0.7916127 -0.84663445
-0.0065584374 -0.6648561 0.48429555 0.4434517 0.54280484 -0.7240014 -0.52057225 0.72659326
-0.97981215 -0.7608152 0.5966987 -0.37271464 0.3658374 -0.78632784 0.5504017 -1.2102374
-0.8208264 -1.0133097 -1.6943052 0.0074795117 0.35069788 0.68410933 0.77085567 0.39921114
-0.77079326 -1.0941602 0.19450629 -0.53028095 -1.0351809 0.5685572 0.49121985 0.71112746
-0.98423916 -0.6714687 0.5497456 0.03131264 -0.5995174 0.8934098 0.6314685 -0.6997637
0.12102708 0.27103525 0.24088663 0.5184559 -0.04044839 0.5733384 0.8618253 0.5393832
0.64927477 0.47660547 0.29997525 0.68617177 -0.8986215 -0.8988031 -0.9483902 -0.7445844
-0.5429134 0.62202764 0.09963617 0.51580906 0.6760957 -0.8636087 0.73011017 -0.6302468
-0.16860548 0.7631716 -0.8022412 -0.82409227 0.6284925 -0.5144163 0.22088629 -0.84526485
0.6900275 0.13027601 -0.637889 0.7483348 0.05315816 -0.57016784 -0.8959698 0.5052323
-0.8245022 -1.4328711 -0.74652284 -0.7765656 0.9322738 0.18661124 -0.7671675 -0.27871418
0.6187776 -1.053843 -1.0188949 0.5982175 -1.3671314 -0.483603 -0.9389406 -0.54135513
-0.8721596 -0.63912773 1.0903841 0.7874632 -0.8396421 -0.5764587 0.8880256 -0.5968864
-0.76117575 1.2205042 -0.77082944 -0.6397012 -0.8040946 -0.04995652 -0.6146876 -0.7735052
-0.6869703 0.69691646 -0.90421146 0.9263026 -0.61613464 1.3072592 -0.6725852 -0.64800406
0.35744163 0.1169581 -0.55774444 0.51255625 -0.7956374 -0.9139947 0.31509113 -0.83934784
0.7949121 -0.5790331 0.8712475 1.0088711 -1.0883726 -0.8030304 1.0327641 0.8799957
-0.6301433 -0.8754771 0.93862975 -0.055278674 0.25815928 0.5717665 0.59816766 -0.41102222
-0.515233 -0.40127993 -0.71076417 -1.0155797 0.9027655 0.925391 0.6804148 0.07664022
-0.7995614 -1.1505195 1.1254956 0.36713874 -0.57311416 0.80625117 0.55553496 0.024571883
-0.75876397 -0.45158386 0.5020268 1.7395403 -0.49514338 0.4719587 0.3460833 -0.91677266
0.8477488 0.78813595 -0.06515885 0.79252243 0.6791763 1.4190868 0.7078139 0.81226903
0.9299492 0.6801181 1.0689143 0.96408683 -0.76839554 -0.7031212 -0.80706865 -0.7747801
-0.22071649 0.83681566 0.25206053 0.81389856 0.8120015 -0.7598491 0.91268164 -0.56895983
0.52632135 0.76772153 -0.82492656 -0.8617054 0.62636334 -0.3622047 0.9110289 -0.60987234
0.7220959 -0.15897237 -0.7613344 0.4600378 0.03407581 -0.7183805 -0.621064 0.7090934
-0.5750256 -1.0682449 -0.714025 -0.83849657 0.5118322 1.2863481 -0.6455965 -0.7193159

lstm_layer.bias_hh_l0 f4 [512]
00000000: f94a d73e 76ba 0fbf 66ce e6be 1081 383f
00000010: 6326 84bf fa01 d5be 3f2d 4abf 22e1 9fbe
00000020: ab31 4fbf 1ab4 69bf eb87 17be 1cef 1d3f
00000030: b661 43bf 72a5 3ebf e324 323f 77ce b8bf
00000040: f4f6 49bf 2411 2d3f 2f0a b53e 6cb5 08bf
00000050: 03e8 72bf afee c3be 7794 15bf fe6d 9ebf
00000060: 3f24 87bf 7fb8 0b3f e989 62bf 6813 6a3f
00000070: 57e2 6ebe 8eb1 1abe e6c3 62bf ffa5 9a3d
00000080: b8f4 313f b477 7ebc 582c e5be f760 81be
00000090: 9e94 adbf 32f8 88bf ad5b 483f a949 3cbf
000000a0: 8d50 93bd ab8c 33bf 5d55 f23e 9712 fe3e
000000b0: 4d19 0d3f f810 24bf c1e4 e5be f66b 433f
000000c0: c57d 86bf 0b4b 3abf 852d 2e3f 8e06 85be
000000d0: 3293 b93e 2a89 4abf 885d fc3e 79be 97bf
000000e0: f76f 2ebf bd42 8bbf d4e2 ebbf a3e0 053e
000000f0: 3b12 d53e 8df3 2f3f 7290 453f 87f6 c43e
00000100: f90e 3fbf bf48 88bf 9e8d 483e 722b d8be
00000110: 9f6f 82bf 5c37 fd3e 584d e93e 352d 363f
00000120: a03e 8abf 3d29 0bbf f884 203f 9276 e2bc
00000130: ed1f 2cbf 8746 583f cdae 253f 732a 29bf
00000140: 5d56 243e 3312 863e 20d5 753e 4f59 063f
00000150: 442f 4e3b 7703 2a3f 6495 683f 2246 ee3e
00000160: 9ead 2a3f f0e4 c53e f75b a73e 1e63 4d3f
00000170: 1403 82bf 62ee 5fbf 7e30 5abf 1751 37bf
00000180: 06b9 e9be f902 1f3f a475 6d3d aad9 053f
00000190: b3a2 053f 4445 3ebf b46d 3d3f 873f 20bf
000001a0: 0c41 12be 2926 4a3f f1b5 6dbf 461f 37bf
000001b0: c845 283f 6bb2 15bf 5fca f03d a1db 2dbf
000001c0: 7e4e 2e3f 6f19 943e d8ea 19bf 2f2d 5e3f
000001d0: 961a 51bd c112 1abf cea6 4cbf 1067 e53e
000001e0: 1fa4 70bf 06f8 b6bf 73c6 2cbf 8a9a 47bf
000001f0: 55b5 763f b44b 0a3e c116 59bf 5fe6 81be
00000200: 01d6 363f fae6 88bf d372 79bf 8964 053f
00000210: 5201 9ebf b28a ffbe 2df4 51bf c459 09bf
00000220: 7e99 6cbf 7501 04bf c1ed 823f d0c7 663f
00000230: 6162 49bf 5e29 e6be 0982 543f ec53 37bf
00000240: d062 49bf 51a0 973f 1a5c 42bf 81b0 2dbf
00000250: 33f9 66bf 6642 2fbe b70d 19bf 9652 46bf
00000260: 42d7 11bf 7063 2e3f 234c 65bf 3b8c 7b3f
00000270: ccba 14bf 8764 b13f fd09 2abf cc57 2cbf
00000280: a8ef d53e b91c 1c3e f82f 15bf 5a7d 0d3f
00000290: 1dfd 40bf ed94 46bf 56e6 c13e 089b 5bbf
000002a0: ebcf 433f 85ad 0dbf bfb4 613f 9bd4 603f
000002b0: 1e10 91bf 5ba3 41bf e04e 8e3f 1f8e 693f
000002c0: 27f8 0fbf e69e 49bf 13df 7f3f 2957 3fbd
000002d0: 4e62 4d3e 7845 e53e 2e77 163f 25cd efbe
000002e0: c13d ecbe e822 9ebe f852 42bf 8cbe 88bf
000002f0: c439 6b3f 9f29 6c3f 12b1 2a3f 78d1 c33d
00000300: e5ff 49bf 64b5 8dbf 6043 943f 3b47 cf3e
00000310: 6e0b 11bf 4868 5a3f 032e 103f 6986 febc
00000320: 79b5 5dbf 42b9 a3be b600 003f e318 ca3f
00000330: 1f6f ecbe 1aca d83e 45aa d23e 5b6b 69bf
00000340: f66e 5a3f 5009 573f c8f2 a8bb bc1f 413f
00000350: ffd7 3b3f 7b3c b73f def3 3f3f 3376 493f
00000360: c57f 723f bdad 323f e432 803f 57d2 753f
00000370: a485 35bf dc7b 20bf 8f1c 5fbf cf96 21bf
00000380: b172 afbe 5906 4f3f f6cc 8b3e f01b 473f
00000390: 78d6 4b3f b194 40bf 7b81 823f a576 1abf
000003a0: ac95 223f 7877 253f ce0f 64bf 7b53 5fbf
000003b0: 7414 1d3f 6967 9abe 552d 683f 6723 16bf
000003c0: 4139 353f 1875 88be e0ac 53bf 1c06 113f
000003d0: 178b ff3d acb1 53bf 8b08 2cbf 5596 343f
000003e0: 6673 1fbf 3ad7 79bf 6c89 1abf 06a5 43bf
000003f0: ae13 1b3f 9d06 9b3f c946 10bf 8f06 18bf
0.42049387 -0.5614389 -0.45079345 0.72071934 -1.0324215 -0.4160307 -0.7897529 -0.3122645
-0.8093516 -0.9129044 -0.14797942 0.61692977 -0.7632097 -0.744712 0.69587535 -1.4438008
-0.78892446 0.6760428 0.35359332 -0.5340183 -0.9488527 -0.3826804 -0.58429664 -1.2377317
-1.0557936 0.54578394 -0.88491684 0.9143586 -0.2332853 -0.15106794 -0.8858017 0.075511925
0.69514036 -0.015531469 -0.44760394 -0.2526929 -1.3560979 -1.0700743 0.78264886 -0.73549896
-0.07193098 -0.7013652 0.47330752 0.49623558 0.5511673 -0.6408839 -0.44901088 0.7633661
-1.0507132 -0.72770756 0.6803821 -0.25981563 0.36245114 -0.79115546 0.4929011 -1.1855003
-0.68139595 -1.0879742 -1.8428597 0.13073973 0.4161547 0.68731004 0.7717353 0.38469335
-0.7463222 -1.06472 0.19585273 -0.42220646 -1.0190314 0.49456298 0.4556682 0.7116273
-1.0800362 -0.543598 0.62702894 -0.02764443 -0.67236215 0.84482616 0.6471985 -0.660804
0.1604857 0.2618576 0.24007082 0.52480024 0.0031461278 0.66411537 0.9085295 0.46537882
0.6667117 0.38651228 0.3268735 0.80229366 -1.0157189 -0.8747312 -0.85230243 -0.7160811
-0.45648974 0.6211391 0.05797352 0.52285254 0.52201384 -0.7432444 0.7399552 -0.62596935
-0.14282626 0.7896448 -0.92855746 -0.71532094 0.6573148 -0.5847537 0.11757349 -0.6791325
0.6808852 0.28925654 -0.6012397 0.86787695 -0.051050745 -0.60184866 -0.79942024 0.44805193
-0.9400043 -1.4294441 -0.6749031 -0.7797018 0.9637044 0.13505441 -0.84800345 -0.25371072
0.71420294 -1.0695488 -0.9744083 0.5210653 -1.2344153 -0.49910504 -0.8201321 -0.53652596
-0.9242171 -0.51564723 1.0228807 0.9014864 -0.7866574 -0.44953436 0.8301092 -0.7161243
-0.786664 1.18458 -0.75921786 -0.6784745 -0.90224 -0.17115173 -0.5978655 -0.77469766
-0.5696908 0.6812048 -0.895693 0.9826085 -0.5809753 1.3858804 -0.6642149 -0.6732147
0.41784406 0.15245332 -0.5827632 0.55269396 -0.7538622 -0.7757099 0.37871045 -0.85783434
0.7648913 -0.55342895 0.8816642 0.8782441 -1.1333044 -0.75639886 1.1117821 0.91232485
-0.56238025 -0.78758085 0.9994976 -0.04671398 0.20057032 0.44779563 0.58775604 -0.468362
-0.46140864 -0.30886006 -0.7590785 -1.068315 0.9188502 0.9225101 0.6667644 0.09561437
-0.7890609 -1.1070981 1.1583061 0.40484032 -0.56658065 0.8531537 0.5632021 -0.031069951
-0.8660503 -0.31977278 0.50001085 1.5788845 -0.4617853 0.4234169 0.4114553 -0.91179436
0.8532556 0.83998585 -0.005155895 0.7543905 0.7337646 1.4315332 0.74981487 0.7869598
0.9472621 0.69796354 1.001553 0.9602408 -0.70907044 -0.62688994 -0.8715295 -0.6312074
-0.3426719 0.8086906 0.2730481 0.77777004 0.7962413 -0.75226885 1.0195764 -0.6033729
0.6350963 0.6463542 -0.89086616 -0.87236756 0.61359334 -0.3015702 0.9069417 -0.5864777
0.7079049 -0.26651835 -0.8268566 0.5664995 0.12477701 -0.8269298 -0.67200536 0.7054189
-0.6228546 -0.97594035 -0.6036594 -0.7642368 0.60576904 1.2111393 -0.5635801 -0.5938501

hidden_layer.weight f4 [16, 128]
00000000: 31eb f6bf 555c 773f a85f c9bd 8bc3 85bf
00000010: 640e 41be db04 50bf 47ed 0cbe 51b9 7540
00000020: cea7 7c3f 99cc e0bd 6402 df3f eb51 3fbf
00000030: 327a e7be dfe7 8dbe 60ed 793e 5533 3dbf
00000040: 8706 103f 2f80 d5be be62 95c0 5b7c cabb
00000050: 236e 9e3f 9d52 ffbe 8972 04bf c872 0cbf
00000060: de17 263f 0d1d a6bd 51f3 e33e 8384 4d3f
00000070: 9e27 113f 2895 b1be 5d46 313f a01a cdbf
00000080: 3bfd d13f bbfc 23bf 1165 873e b2a7 d2bf
00000090: 0499 373f 93eb 1c3f 1c1b 5bbf 9fbd f53d
000000a0: 00d9 07bf a254 4d3f c8f3 a53f ffe1 4cbf
000000b0: 5152 65c0 afc3 98bf ea65 f23e 6404 5c3f
000000c0: b521 10bf f8bb 9b3e ca77 3b3e 6dfc bdbd
000000d0: 57d6 99bc ea14 c43f 5403 113f 6e7a 0ebf
000000e0: 4c3a adbe d381 643f 7838 8e3f 4d15 c9c0
000000f0: a937 3440 ad99 a23f 1cdf 9f40 a9c3 0bbd
00000100: 08e1 673e 8544 283f 4390 b5be f152 f83e
00000110: afc5 543e 70eb 02bf 2e50 30bf f356 103f
00000120: 85f6 a3be 943b 763c cf82 b83f c04c 20bf
00000130: dbd6 85bf fba1 9e3e 59ee d9bb e101 9bbf
00000140: 1e28 1a3e 113b 09bf 3f96 673f 0cf3 853f
00000150: 3b23 76bf a5c7 51bf ee2f 1c3f b626 c3be
00000160: 13e5 dc3e d651 65bf 48be a1be ec53 b1bf
00000170: f39e c9be 85e0 b1be 0206 213e 4bfe c03e
00000180: 1b74 a1be b8b3 8b3f 208e b23e d828 0bbf
00000190: 7f54 a3bf 3068 6fbf de00 323e 4354 f5bf
000001a0: 8245 d0be 0731 203f 0eca 97be 0c27 753f
000001b0: 7907 a53d 3eae c93d 528a 8bbf 40c7 563f
000001c0: 1543 7f3f e5d1 a6be 79e7 503e 719c 1f3f
000001d0: e2ab 00be 1bfd 57bc a97e 793f 1d74 1bbf
000001e0: c4da 9d3f f93e fdbe 3f2e 0cbf d1d1 00bf
000001f0: 60c9 b7bf e290 323f 4152 d6be 8c49 933f
00000200: 3cce e33b 88e9 753f 5175 ef3f 0949 5dbf
00000210: 9130 293f 988a 143e 1529 c7be e754 0540
00000220: 1b54 48bf f528 fd3e 6a6a 4d3f ac69 1abf
00000230: bf3c f2bd 2dbc bbbd a6c4 813f 388f 02bf
00000240: 2080 7c3e 1f18 2a3f 471f 04c1 3cdf 943f
00000250: 02ce bc3c a198 603f 5a40 11bf e300 16bf
00000260: 349d 2a3f 7dc2 7c3e ac09 f73e 498b 773f
00000270: ea0f ec3e 9dd4 18bf 19f1 e03d d8ac b43f
00000280: 3a66 c23f bbd6 efbf 4a79 ddbf ecd6 f6bf
00000290: 0cd8 263f 566e 393f 5549 3bbf 7633 be3d
000002a0: 07f0 fdbe e4de d23e 155c a5be 612c a0bf
000002b0: 023f b13f 43db eb3e c813 f6be 8a06 443f
000002c0: 37ca 3fbf f7d6 e83e 7bf3 6a3f 1765 3b3f
000002d0: 6ff5 1c3f 4298 5b3f 9095 d93c 0189 80bf
000002e0: 4407 c03e 1dfa 643f cbfc d33e f3d9 2f40
000002f0: 7c91 8140 1087 333e 3a0f 5dc0 0661 863f
00000300: 9acc 993e 4f1a bb3d cfd9 8d3d 63d3 1cbe
00000310: 5bb1 38bf d186 05be d799 46bf 401b 8abe
00000320: 3ef2 abbd 2241 f0be 6529 ca3e 8d5d 28bf
00000330: 8450 393f 6410 c43e acaf 8e3f ad03 5dbf
00000340: 93c9 433f b338 24bf fe44 2bbf a1e3 e23e
00000350: f4c1 d7be d08c 01bf 4da1 6b3f df01 9a3e
00000360: a192 633f 2af5 183e f9cd fa3d 8962 0740
00000370: a05a c83e 3c53 35be 4f87 d13e 41c1 063f
00000380: da54 523f cb0b 653f f4fa 26be 3d00 123f
00000390: 929e 013e f805 3c3f 142f ddbe fb9a aabf
000003a0: 50df 533c a4c6 da3e d955 e3be 698a 21bf
000003b0: 855f bbbe 3e73 883f b101 bcbe a4fd 033f
000003c0: 0ee9 173f 268f cebe 1c36 e7bd 30e9 013b
000003d0: bab8 efbf 1a94 efbf 29c4 003f 2a15 893e
000003e0: 9310 023f 7be8 f2be c0be 31bf 7c75 b5be
000003f0: d27f 05bf 38f3 f83e 254a 11be 570a 0040
-1.9290525 0.9662526 -0.09832698 -1.04503 -0.18853146 -0.8125741 -0.13762389 3.8394358
0.9869355 -0.10976524 1.7422605 -0.7473437 -0.45210415 -0.27715966 0.24406958 -0.7390645
0.5625996 -0.4169936 -4.6683035 -0.006179375 1.2377361 -0.49867716 -0.51737267 -0.5486264
0.6488017 -0.0811101 0.44521573 0.8028032 0.56701076 -0.3468411 0.6924799 -1.602375
1.6405405 -0.6405751 0.26444295 -1.6457427 0.7171786 0.6129696 -0.8558824 0.11999058
-0.5306549 0.80207264 1.2965021 -0.8003234 -3.5831492 -1.1934718 0.4734338 0.859442
-0.5630143 0.30416846 0.18307415 -0.09276662 -0.018778963 1.5318882 0.56645703 -0.5565556
-0.3383354 0.89260596 1.1110983 -6.28385 2.8158972 1.2703148 4.995985 -0.034122143
0.22644436 0.6572955 -0.35461625 0.4850078 0.20778535 -0.511405 -0.68872344 0.56382674
-0.32024017 0.015028853 1.441492 -0.6261711 -1.0456194 0.30982956 -0.0066507277 -1.2109948
0.15054366 -0.53605753 0.9046363 1.0464797 -0.9614751 -0.8194526 0.61010635 -0.38115472
0.4314352 -0.89577997 -0.31590486 -1.3853736 -0.3937908 -0.34741607 0.15724948 0.3769401
-0.31533894 1.0914221 0.34874058 -0.543592 -1.2760161 -0.9351835 0.17383143 -1.916634
-0.4067803 0.6257481 -0.29646343 0.95762706 0.08058066 0.09847687 -1.0901587 0.8389778
0.99711734 -0.32582012 0.204008 0.62348086 -0.12565568 -0.013182904 0.97458893 -0.6072405
1.2332387 -0.49462107 -0.54758066 -0.50320154 -1.435833 0.69752324 -0.4185963 1.150682
0.0069520753 0.96059465 1.8707677 -0.8643957 0.6608973 0.14505994 -0.3889853 2.083307
-0.78253335 0.4944531 0.802405 -0.6031749 -0.11827993 -0.09166751 1.0138137 -0.50999784
0.24658251 0.66443056 -8.257636 1.1630626 0.02304745 0.87732893 -0.5673882 -0.58595103
0.6664612 0.24683566 0.48249567 0.9669691 0.4610589 -0.5969942 0.10983486 1.4115248
1.5187447 -1.8737406 -1.730264 -1.9284339 0.6517341 0.72433984 -0.7315877 0.09287159
-0.4959719 0.41185677 -0.32296816 -1.2513543 1.3847353 0.4606572 -0.48061967 0.7657248
-0.7491793 0.45476505 0.9177777 0.73201126 0.61312 0.857792 0.026560575 -1.004181
0.37505543 0.8944414 0.41403803 2.7476776 4.0490093 0.17531991 -3.4540544 1.0498359
0.3003891 0.09135877 0.06926309 -0.15315013 -0.7214562 -0.1303971 -0.7757849 -0.26973915
-0.083958134 -0.46924692 0.39484707 -0.6576775 0.7238848 0.38293755 1.1147361 -0.86333734
0.7647945 -0.64149016 -0.6690215 0.44314292 -0.42140162 -0.5060549 0.92043 0.30079553
0.8889561 0.14937273 0.122463174 2.115389 0.3913164 -0.17707533 0.40923545 0.5263863
0.82160723 0.8947112 -0.16306669 0.57031614 0.12658146 0.7344661 -0.4319998 -1.3328546
0.01293166 0.42729676 -0.44401434 -0.6310182 -0.36596313 1.0660169 -0.3672004 0.515589
0.5933999 -0.4034359 -0.112896174 0.0019822828 -1.8728249 -1.8717072 0.50299317 0.2677396
0.5080654 -0.47442994 -0.69431686 -0.35441196 -0.52148163 0.4862306 -0.1418844 2.000631

hidden_layer.bias f4 [16]
00000000: 37c3 2ebf 008f 34bf 97a0 1abf 99e6 2bbf
00000010: f626 3ebf d124 58bf 08c1 28bf 5a1a 31bf
00000020: eac3 3cbf ca19 46bf 939c f0be 7a32 2ebf
00000030: c4bd 22bf 4c1d 2dbf 2490 34bf 5835 b6be
-0.68266624 -0.705307 -0.6040129 -0.6714874 -0.742782 -0.8443118 -0.6591954 -0.69180834
-0.7373644 -0.773831 -0.46994457 -0.6804577 -0.6357081 -0.6762283 -0.7053244 -0.35587573
